data1.pth (torch, 25908 bytes, 6 tensors)

l1.weight f4 [8, 336]
000000 96 a3 5a 3e 96 28 a1 3f 9d c6 a0 3f 3a 22 c8 be
       0.21351466 1.2590511 1.2560612 -0.39088613
000010 df 91 8e 3d a8 3a 38 3f 32 ae 14 3f 3b b5 0e 3f
       0.069614165 0.719645 0.580783 0.55745286
000020 c5 00 45 3f aa d3 11 bf d3 b6 92 3f a3 1b a1 bf
       0.769543 -0.569636 1.1462044 -1.2586559
000030 fd 95 60 3e c2 2a 18 3f 74 60 98 bd c6 65 fa 3e
       0.21932216 0.59440243 -0.07440272 0.48905772
000040 3f 10 eb be ce 9a d4 3f a6 6e 05 bf 2e 86 e0 be
       -0.45910832 1.6609743 -0.5212196 -0.4385237
000050 53 e7 7d bf 82 19 c9 3f 78 ba 5b bf c4 36 ad 3e
       -0.991811 1.5710909 -0.85831404 0.33830845
000060 37 8e 50 3f 52 d1 cb 3f 45 8d 83 bf 18 f4 1b bf
       0.81467 1.5923254 -1.0277487 -0.6091933
000070 11 e9 50 3f 9d a1 32 3f 05 de 92 bf 49 06 23 be
       0.8160563 0.6977785 -1.1474005 -0.15920366
000080 cf eb 42 3f 16 8c 7c bf 44 a1 89 be ea 78 98 3f
       0.76141065 -0.98651254 -0.26880848 1.19119
000090 21 d8 32 3f e6 fd 1c bf 9d c1 1b 3f 5a 2d 8c 3f
       0.69861037 -0.6132492 0.60842305 1.095134
0000a0 3e ce f1 3d e7 97 c3 3e 6d ae 08 bf 5f d6 bc 3f
       0.11806916 0.3820183 -0.5339115 1.4752921
0000b0 97 28 fe be cd fd 32 bf 7d 68 1b 40 4c 9a 03 40
       -0.49640343 -0.6991852 2.4282525 2.0562925
0000c0 da fc 1d 3f 71 14 3a 3f 10 98 be bf 51 67 82 bf
       0.61713946 0.7268744 -1.4890156 -1.018778
0000d0 21 8b 22 3f 35 e7 60 3f 0e 8f dc bd 99 3b d9 3f
       0.63493544 0.87852794 -0.10769473 1.6971313
0000e0 93 ab 39 40 c9 20 bd 3f 58 d0 da 3f d2 18 31 3e
       2.901097 1.477563 1.7094831 0.17294624
0000f0 78 84 fa 3e ee 36 7a 40 1b 0b 3a 3f b1 8f 93 bf
       0.4892919 3.9096026 0.72673196 -1.1528226
000100 28 6c 8a 3e 69 a4 ef be 92 f2 18 bf a2 ce 50 3e
       0.27035642 -0.46805122 -0.5974513 0.20391324
000110 c0 d4 e1 3f 79 44 e1 be 69 eb d6 3f e7 a6 ab be
       1.7643051 -0.43997553 1.6790591 -0.33525774
000120 76 4f a0 bf 2d 8f c7 3f 98 6c e9 3d 7e 2f e7 bd
       -1.252425 1.5590569 0.11397666 -0.11288355
000130 34 a3 82 bf 9f 53 a0 40 45 8b 35 3e e6 cd b4 be
       -1.0206056 5.0102077 0.17728908 -0.35313338
000140 2e f1 bd 3f f0 24 0f bf bd 59 0b bf 1e 45 0f 40
       1.4839227 -0.5591574 -0.54433805 2.2385936
000150 9d b9 8f bf 25 df 2e be cd c8 14 3f ed 05 8e 3e
       -1.122852 -0.1707731 0.581189 0.27738896
000160 a4 d3 bb bd c0 06 bf 3f a9 ce 13 3e 49 68 89 3f
       -0.091712266 1.4923935 0.14434303 1.073495
000170 cc 05 48 be fe fb 60 bf ce de 0a bf 2b ef b6 bf
       -0.19533461 -0.8788451 -0.5424622 -1.4291738
000180 1e 99 dd 3f bd 66 6c be ec 73 b7 bf 81 80 50 3f
       1.7312353 -0.23086067 -1.4332252 0.8144608
000190 9a 13 00 40 15 41 8b 3e 10 7b fe 3e a0 c9 81 bf
       2.0011964 0.2719809 0.49703264 -1.0139656
0001a0 69 fd ef bf 65 5d b2 3f 4c a4 63 3e 12 4f 3b 3f
       -1.874921 1.3934752 0.22230643 0.73167527
0001b0 92 55 ca bf 6e d6 ad 3e a8 10 0c bf 90 93 be bf
       -1.5807364 0.3395266 -0.54712915 -1.4888783
0001c0 a3 f0 fd 3e 00 3b 60 bf da 7a 2c 3e c6 2d 22 40
       0.49597654 -0.87590027 0.16843739 2.5340438
0001d0 a6 b6 50 3e c6 ee b6 be 3f 2a 83 3f 47 bb 49 be
       0.20382175 -0.35729045 1.0247267 -0.19700347
0001e0 1e ac 8a 3e d3 33 d2 3e d3 6f 04 40 4c f6 ed 3d
       0.2708444 0.41055164 2.0693252 0.11619243
0001f0 29 27 c2 3f 86 04 3b 3f fb a0 50 40 47 b4 49 3f
       1.5168201 0.7305378 3.2598255 0.78790706
000200 69 8b f9 3d 83 05 35 3f cb 2f 35 3f 4f 9b 8d 3f
       0.121847935 0.70711535 0.7077605 1.1063021
000210 7b 87 16 3f 6c 1b 35 3f 54 98 37 3f d9 98 2a 3f
       0.58800477 0.7074497 0.7171681 0.66639477
000220 e4 13 17 bf f7 23 25 c0 d0 8b 8c bf 16 13 7f 3f
       -0.59014726 -2.5803201 -1.0980167 0.996385
000230 80 0e 1f 3f cb 40 fa bb 58 ec ab 3f 59 f3 4a 3f
       0.621315 -0.0076371185 1.3431501 0.7927757
000240 fd 05 14 bf d2 7d 8d 3f 74 89 4a 3f d1 70 a2 3f
       -0.5782164 1.1054022 0.79115987 1.2690679
000250 f9 21 8f 3e d1 5f 9b 3f 2b 6d 03 bf 2f 33 80 3f
       0.27955607 1.2138616 -0.5133845 1.001562
000260 26 8a fd 3f 3d d9 d6 3f d6 d0 40 be ff dc 8e 3f
       1.9807785 1.6785046 -0.18829665 1.1161193
000270 c5 da ca 3f fb c9 01 bf 71 4d b3 bf 78 b3 3b be
       1.5848013 -0.5069882 -1.4008008 -0.1833018
000280 83 24 e4 be 32 1f d8 3c eb cd 99 bf 0a 1b 56 3e
       -0.44559106 0.026382063 -1.2015966 0.20908752
000290 2c a0 e0 3f 02 36 2e 3d f6 a8 11 3f 52 67 cf bf
       1.754888 0.042531975 0.5689844 -1.6203406
0002a0 1a a0 37 3f 3f 3c 21 bf a2 29 04 40 18 aa 29 bf
       0.7172867 -0.62982553 2.065041 -0.6627517
0002b0 10 aa 1c 3f 3b bd ff bf 48 55 02 bf e9 b6 8c 3e
       0.61196995 -1.9979624 -0.5091138 0.274833
0002c0 1b 8a 06 40 2a ce 57 3e 36 09 cd bf 2d 27 57 3f
       2.1021793 0.21074739 -1.6018436 0.8404415
0002d0 cb 0f be bf 89 05 1a 3f 04 fb a7 3f 63 39 69 3f
       -1.484857 0.60164696 1.3123479 0.9110319
0002e0 a2 ca 7c bf 99 ad 66 bf 29 0c 82 3f 2e c8 c1 3f
       -0.98746693 -0.9010864 1.0159961 1.5139215
0002f0 9f 52 06 40 e8 43 2b be 1f 54 01 bf bc 13 9e 3f
       2.0987928 -0.16725123 -0.50518984 1.2349772
000300 39 ed 1c 40 38 a2 1b bd b4 cb 81 3f 74 e0 3e 3d
       2.451979 -0.0379965 1.014029 0.046600774
000310 d4 4c 37 3f fc 6d 03 bf 31 98 e2 be d6 e8 95 3f
       0.71601605 -0.513397 -0.44256738 1.1711681
000320 51 4f 53 3f c8 ee 63 3f 3d 9c 9c 3f d4 a4 e8 b9
       0.825429 0.89036226 1.223518 -0.00044373295
000330 18 68 12 bf 3f 2c 2a 3f 99 2d 2f 3f 1e 79 8a bf
       -0.57190084 0.66473764 0.6842895 -1.0818212
000340 00 c4 db 3f ac e2 e1 3e c5 1a e4 3f cd 2e c9 bf
       1.716919 0.4411825 1.782067 -1.5717407
000350 c5 38 94 3f e2 12 86 3e 64 42 68 be 32 17 6d bf
       1.1579825 0.2618628 -0.22681576 -0.9261352
000360 a0 a2 94 3e a3 8e 67 3f c2 d6 8a 3e 50 99 6b be
       0.29030323 0.9045202 0.27116972 -0.23007703
000370 35 b9 17 3f 9d 68 e0 bc 4a 56 b0 be b8 d8 f2 bc
       0.5926698 -0.027393633 -0.34440833 -0.029644355
000380 50 e3 80 3e 9b 79 b2 bc 5a b1 49 3e bc f4 d9 bd
       0.25173426 -0.021786502 0.1969656 -0.106423825
000390 c3 33 91 3e ec 1e 68 bf 45 e5 ce 3f 1a 51 be bf
       0.28359804 -0.90672183 1.6163718 -1.48685
0003a0 fa 76 8e bf 56 42 4e 3f b8 c2 99 3f ff 27 a6 bf
       -1.1130059 0.8056997 1.2012548 -1.2980956
0003b0 ad c5 47 3e 74 37 20 3f 8d 26 07 bf 39 ea 0c 3f
       0.19509001 0.62584615 -0.527932 0.55044895
0003c0 b2 8b 17 bf 5f ba 3e 3f 8e e9 6b 3f e4 7d 20 40
       -0.59197533 0.7450313 0.9215325 2.5076838
0003d0 2d ca c4 bf 26 25 a6 3f ad bc c1 3f 9d 7c a2 bd
       -1.5374199 1.2980087 1.5135704 -0.07933924
0003e0 3f 8c c2 3f ec 56 f8 be a5 02 d6 bc 5f f2 c3 3f
       1.519905 -0.48503816 -0.026124308 1.5308341
0003f0 1b b2 8f bf 81 c4 ee bd 8d 69 76 be 35 73 d3 bf
       -1.1226228 -0.11658574 -0.24063702 -1.6519533

l1.bias f4 [8]
000000 e2 f3 ae 3f 8e f4 29 3f ee ff 66 3f 22 cc c9 3f
       1.3668177 0.66388786 0.9023427 1.5765421
000010 76 25 b3 3f a6 49 12 3f 3e d3 6c 3f 46 07 4f 3f
       1.3995807 0.5714363 0.9250983 0.80870473

l2.weight f4 [8, 8]
000000 4d 6c 05 40 8b 27 de bf 5f 4c 01 40 91 f8 a4 bf
       2.0847352 -1.7355818 2.0202863 -1.2888356
000010 b1 de 16 be 1a 8a c7 3e cb 99 96 3f 65 3c 4d 3e
       -0.14733388 0.3897255 1.1765684 0.2004257
000020 9c 29 a7 bf 05 ef b3 be cc a0 d7 3f 7f 3e 27 40
       -1.3059573 -0.35143295 1.6845946 2.6131895
000030 8c 9d 5a bf d0 6f 53 be b5 63 1f 40 a9 f9 c6 3f
       -0.8539665 -0.20648122 2.4904606 1.554494
000040 88 99 8c bf f8 e6 cf 3f ba 2f f0 3f 47 11 04 bf
       -1.0984354 1.6242361 1.8764565 -0.51588863
000050 5b 39 21 3f 15 f3 23 40 57 f2 8b bf 16 ed 32 40
       0.6297814 2.5617115 -1.0933331 2.7957206
000060 8b b1 71 3f 11 eb bc 3f 7c 60 fe 3e a6 66 af bf
       0.94411534 1.4759237 0.49682987 -1.3703201
000070 2d bd 5e 3f e6 47 3a 40 60 e4 1c 40 ec 51 03 c0
       0.8700741 2.9106383 2.451439 -2.051875
000080 0c e3 32 3d d9 f1 57 bf cb e0 bd 3f 82 f3 85 3e
       0.04367356 -0.84353405 1.4834226 0.26162344
000090 bb 2d 21 40 49 68 e6 bf 44 64 5a 3f 4a d9 aa be
       2.5184162 -1.8000575 0.85309243 -0.33368903
0000a0 09 4f b0 be eb b9 24 c0 05 fb 29 3e 10 8e 52 3f
       -0.344353 -2.5738475 0.16599663 0.8224802
0000b0 33 60 aa 3f 50 d3 19 40 c8 9d ad 3f 3f ba 29 3f
       1.3310608 2.4035225 1.3563776 0.66299814
0000c0 bd df ea 3f f6 ec b6 bf 3b 64 51 bf da 01 31 40
       1.834953 -1.4291065 -0.81793565 2.765738
0000d0 0d 5d 4a 3f 2d 22 c2 3f 71 ef b1 bf b0 7f cd 3f
       0.79048234 1.516668 -1.3901197 1.6054592
0000e0 ce 16 4f 40 21 3d 9f 3f 98 a1 43 bf 7e 4a b2 3f
       3.235767 1.244053 -0.7641845 1.3928983
0000f0 57 e4 3a 40 16 ba 81 bf ca 88 36 bf 68 98 7d bf
       2.9201868 -1.0134914 -0.71302474 -0.9906068

l2.bias f4 [8]
000000 cb 8b 89 3e eb 42 07 3f ce d8 32 3e fa 13 51 be
       0.26864466 0.52836484 0.17465517 -0.20417777
000010 4e 4f 1b 3f a9 b9 83 be 8d 1e 58 3e da dc 81 3f
       0.60667884 -0.25727585 0.21105404 1.0145524

l3.weight f4 [129, 8]
000000 28 1e 61 3e ea 9e 90 bf 74 7d 4c bf 15 c7 0c 3f
       0.2198416 -1.1298497 -0.79878926 0.54991275
000010 40 16 6d c0 2f 97 0b c0 61 ec 87 c0 6e 0b 06 3e
       -3.704483 -2.1811025 -4.247605 0.13090298
000020 24 31 78 bf ef 07 b5 bf 96 7a 38 bf 97 a9 23 3f
       -0.9694998 -1.4143046 -0.7206205 0.6393065
000030 86 7e fa bf 31 e3 c8 3e 04 33 12 bf 44 7b b8 be
       -1.9569862 0.39235833 -0.57109094 -0.36031544
000040 03 12 5f 3e f0 5a e0 bd 49 8c 2d c1 41 87 bb bf
       0.21784215 -0.10954845 -10.846749 -1.4650651
000050 2c 7d 67 3e d9 c8 70 3e 55 73 ce 3e f8 c4 de 3e
       0.22606343 0.23514117 0.40322366 0.4350965
000060 ff c0 9f be bc 58 a2 bf b3 5f f2 3e ff d0 b5 be
       -0.31201932 -1.268333 0.47338638 -0.35511014
000070 85 1e 86 c0 16 b1 89 bf 76 a6 d6 bc 88 f9 e4 bf
       -4.1912255 -1.0757167 -0.026202422 -1.7888651
000080 98 05 ff bf e4 70 2e 3f 1b 92 cb bf 3e 6a 3f bd
       -1.9923582 0.6814101 -1.5903963 -0.04673218
000090 90 1d 30 bd 0d eb d1 3b 80 ca 94 c0 b4 07 8a be
       -0.042996943 0.006406194 -4.649719 -0.26959002
0000a0 ab 11 73 c0 dd 0d 14 c0 01 7f 24 3f 2d 3e ce be
       -3.7979534 -2.3133461 0.6425629 -0.4028181
0000b0 3f 90 79 c0 a3 97 1b c0 47 ab 39 bf 5f bf da 3e
       -3.899429 -2.4311302 -0.72526973 0.4272413
0000c0 4f 2d 26 3f 02 dd 31 bf 38 fc 80 bf 57 76 ba 3e
       0.64912885 -0.69477856 -1.0076971 0.3641841
0000d0 91 8e f4 bf 47 44 82 bf 02 fd 9b bf 6f e5 da be
       -1.9106008 -1.0177087 -1.2186587 -0.4275317
0000e0 74 9d 32 3e 36 55 84 c0 4e cc 29 be 76 03 59 bf
       0.17442876 -4.1354017 -0.16581842 -0.84770906
0000f0 18 60 bc bf 7e 60 24 3f 9b 13 bc 3e e4 06 ac be
       -1.4716825 0.64209735 0.36733708 -0.33599007
000100 24 f2 21 3e c2 42 f4 3e 0f bb 96 bf cd c9 99 c0
       0.15815026 0.47707182 -1.1775836 -4.805884
000110 ef 68 bb 3e 65 a8 98 3e 78 5d ab 3e 83 40 bd bd
       0.36603495 0.29815975 0.33469748 -0.0924082
000120 91 a9 a8 3e ea bd 0d bf d8 49 08 c0 e3 53 a4 3e
       0.3294187 -0.5536791 -2.129507 0.3209525
000130 0d ae 15 bf fd 89 4b 3f 02 55 31 bf 1f dc 61 bf
       -0.58468705 0.7950743 -0.69270337 -0.88226503
000140 3e 92 73 c0 31 eb 95 bf ed 82 bf be 65 f8 a8 c0
       -3.805801 -1.17124 -0.37404576 -5.2803216
000150 9c 9a aa 3f 46 1f b3 3f f7 85 6e 3d d8 11 24 3e
       1.3328433 1.3993919 0.058233228 0.16022432
000160 c4 b3 4f c0 05 07 41 3f 9d 9d a8 bf 2e 8a fb bf
       -3.245347 0.75401336 -1.31731 -1.9651544
000170 66 bc 18 3f 87 32 e4 3f 39 19 d3 be ad e2 5c bf
       0.59662473 1.782792 -0.4123018 -0.8628338
000180 9f 95 92 3f e6 e1 9a be 8f 67 cc be 5f 5e 08 be
       1.1451911 -0.30250472 -0.3992276 -0.1331725
000190 ed a9 50 be bc 01 86 3e b4 64 97 bf 26 94 11 c0
       -0.20377322 0.26173198 -1.1827607 -2.2746673
0001a0 20 67 7c c0 e2 ba 68 c0 03 20 1d bf 91 06 83 3b
       -3.9437943 -3.6364064 -0.6137697 0.0039985855
0001b0 38 44 3b c0 1d 57 8d bf 02 ca df bf ac ba 9f 3f
       -2.9260387 -1.104221 -1.7483523 1.2478843
0001c0 33 35 68 3f 3e a5 a2 c0 67 a8 bf c0 d2 20 ee be
       0.90706176 -5.082671 -5.989307 -0.46509415
0001d0 3e 56 80 be e1 9f 4f c0 19 6f ac 3e e4 4c ac 3e
       -0.25065798 -3.2441332 0.3367851 0.33652413
0001e0 ad 18 a8 c0 90 67 b7 be 29 8a 37 3f da d9 8e c0
       -5.253012 -0.358212 0.7169519 -4.464093
0001f0 3e 61 64 c0 21 ba 0f bf 54 50 b4 3e e6 0c 7c 3e
       -3.5684352 -0.56143385 0.35217535 0.24614295
000200 55 49 56 3e 7a f8 e2 3e 9e 55 08 c1 ef a5 03 bf
       0.20926411 0.44330198 -8.520903 -0.5142507
000210 f1 77 de 3e f4 a8 9b 3e 74 e0 17 bc df 37 71 bd
       0.43450883 0.30402339 -0.009269822 -0.058891173
000220 7c a9 5e be fe 98 fc bf 95 0a a6 bf 61 79 c6 be
       -0.2174434 -1.973419 -1.2971979 -0.3876448
000230 20 0a 49 c0 ed 0e d9 bf 9b 2a 08 3f 34 b6 0a 3f
       -3.141243 -1.695768 0.5319001 0.5418427
000240 05 d0 dc 3e b3 35 ab bf fd e2 99 be 52 0d a2 3d
       0.43127456 -1.3375763 -0.3005599 0.07912697
000250 60 57 8d c0 e1 75 15 c0 0a b5 44 3e 4f f2 03 bf
       -4.416916 -2.3353198 0.19209686 -0.5154161
000260 1b 24 78 c0 26 ac 0f c0 4c be 36 3f 2c e0 dc 3e
       -3.8772037 -2.244882 0.7138412 0.4313978
000270 60 ce e9 bf b4 87 f0 bf 54 7d e8 bf 5f 6a 64 bf
       -1.8266106 -1.8791413 -1.8163247 -0.8922481
000280 5a 82 bd be bb 7d d0 3d b4 05 86 3d a2 a0 21 3c
       -0.37013513 0.10180231 0.065440565 0.009864958
000290 a1 8a 8b c0 46 f2 03 3f 16 2a 81 c0 1e 47 51 c0
       -4.3606725 0.51541555 -4.0363874 -3.2699656
0002a0 f5 b3 2f c0 89 f2 67 be 73 a3 aa 3d 84 d9 99 3e
       -2.7453587 -0.22651114 0.08331957 0.30048764
0002b0 73 10 12 c0 d6 65 01 3e 67 6e b6 bf 25 42 3d c0
       -2.282254 0.12636504 -1.4252442 -2.9571621
0002c0 ba 38 1a c0 bf 75 ee be 93 ef 08 3f 9b 63 09 be
       -2.4097123 -0.46574208 0.5349056 -0.13416903
0002d0 fb 9d 16 c0 6f fa 30 c0 97 b6 70 bf f7 47 b5 bf
       -2.3533924 -2.7652853 -0.9402861 -1.4162587
0002e0 c0 d0 22 c0 e5 75 80 c0 b8 a0 1f bf 5e d7 4f 3d
       -2.543991 -4.0143914 -0.6235461 0.0507425
0002f0 e3 e0 8a 3f 46 46 de bf f5 7e 4c c0 3f b1 ed 3e
       1.084988 -1.7365196 -3.1952488 0.4642429
000300 1b 37 09 c0 34 17 54 3e 90 ce b4 be bf dc 61 3e
       -2.1439884 0.20711976 -0.35313845 0.22056864
000310 31 8d da be 8b c1 28 3f a7 06 2f c0 ae 27 08 c0
       -0.42685845 0.65920323 -2.734781 -2.1274219
000320 fb 88 c4 3e a0 77 a1 c0 03 c4 94 bf 6f 8e d5 3d
       0.38385758 -5.0458527 -1.1622318 0.10427558
000330 2a 56 c6 bf c5 7f 0a c0 83 59 93 be 5d 25 52 3e
       -1.5495045 -2.1640484 -0.2877923 0.20522065
000340 0e 65 2e c0 86 91 dd 3d 85 ae 9e 3e f8 85 78 3e
       -2.724918 0.10818772 0.30992523 0.24269855
000350 fb 61 ed bf 77 b7 df bf 94 88 55 c0 b9 fd 39 c0
       -1.8545526 -1.7477864 -3.336461 -2.906111
000360 fb db 91 c0 ab e7 ae 3e 52 04 2f 3e 93 66 5c bf
       -4.558103 0.34161124 0.17091492 -0.86094016
000370 95 fa 48 bf 17 b7 1a 3f 9c 1f 98 bf 23 4e d0 bf
       -0.7850736 0.6043562 -1.1884646 -1.6273845
000380 10 5a e9 3c fa 0a 4b c0 27 38 0d c0 d4 7f 92 3e
       0.028485328 -3.172545 -2.2065523 0.2861315
000390 9e 41 fb bf 35 8d 1e 3f 91 7c 64 3e e5 1a bd 3c
       -1.96294 0.61934215 0.22313143 0.023084113
0003a0 5d 61 8b be d8 46 9d 3e 3e 20 c0 be 85 91 1b 3f
       -0.2722272 0.30718112 -0.375246 0.6076892
0003b0 4e 5e 2d c0 30 ab ed bf 39 d1 23 c0 23 49 3f c0
       -2.708881 -1.8567867 -2.559645 -2.988839
0003c0 50 51 99 c0 95 e6 b0 be 58 ac 0a 3f 13 e8 95 bf
       -4.791176 -0.3455092 0.54169226 -1.1711448
0003d0 a5 ad 04 3f 6e a6 c5 bf dd 69 8a bf 30 49 e0 be
       0.5182746 -1.5441415 -1.0813557 -0.43805838
0003e0 b2 49 44 3f a9 65 aa 3e cc ae 3d bf b8 9c 0c be
       0.7667495 0.33280686 -0.74094844 -0.13731658
0003f0 28 e7 f7 bf 7a 38 21 c0 3d b1 84 c0 29 ab 9e bd
       -1.9367418 -2.519072 -4.1466355 -0.0774749

l3.bias f4 [129]
000000 8d 6b 2a be 67 b1 8a bf d4 ea d5 3e c2 4f 3e 3d
       -0.1664259 -1.0835389 0.41780722 0.04646278
000010 eb b0 e7 bd 29 b8 57 3f fc 4b 83 bf e1 8f 3d be
       -0.11313041 0.8426538 -1.0257564 -0.18511917
000020 ed 28 af 3e 39 14 c8 bf 34 19 a5 bf e7 c7 91 bf
       0.3421091 -1.5631171 -1.2898316 -1.138913
000030 5b d8 34 bf 36 6e eb 3e 22 75 ff 3e ed ab c9 bf
       -0.7064263 0.45982522 0.49894053 -1.5755593
000040 fc c6 70 3e 9f 4b 27 bf ae 87 74 3d 72 7b 8f 3d
       0.23513407 -0.65349764 0.059699707 0.07005967
000050 41 08 18 3d 70 30 c3 be ef a1 2a bd 79 ed 95 be
       0.037117247 -0.38122892 -0.04165834 -0.2928274
000060 7f 03 75 bd 4e 25 1a bf 88 8e 05 be 05 bb b1 bf
       -0.059817787 -0.6021317 -0.13042653 -1.3885199
000070 c1 c0 37 bf dd 70 e4 3c 1a 24 9d be fe 72 aa 3e
       -0.71778494 0.027885849 -0.30691606 0.33290857
000080 97 75 0d bc 6a 2a 0c bf e1 43 bd bd c0 e7 77 bf
       -0.008633993 -0.5475222 -0.092414625 -0.96838
000090 d0 37 15 bf 2e 59 c2 be 3b 3f a6 bd 16 d3 d3 3c
       -0.5828829 -0.37958664 -0.08117529 0.02585749
0000a0 5d b5 ff be ad 75 a7 be 2b 3c 7a bf 13 e9 2e 3f
       -0.49943057 -0.32706967 -0.9774806 0.68324393
0000b0 b6 0d 53 3e 06 16 c5 bf 64 a1 47 bf 6e 4b 55 3e
       0.20610699 -1.5397346 -0.7798064 0.20829555
0000c0 33 32 9a be 6a d0 b6 bf 6a d5 1b be e3 c3 81 be
       -0.30116424 -1.4282353 -0.1521813 -0.25344762
0000d0 92 f1 91 bf 28 7a 3b bf 6d b9 97 bf ad e7 bd bc
       -1.1401846 -0.7323327 -1.1853462 -0.02318176
0000e0 e6 1b 84 3e e5 ae d0 be b2 6e e5 3d 77 d1 9c bf
       0.25802535 -0.40758434 0.11202754 -1.2251424
0000f0 51 a0 92 be fb ad b3 3d 52 a5 42 bc 51 69 81 bf
       -0.28637937 0.087734185 -0.011880236 -1.0110265
000100 cb cc 09 3d f5 99 f1 bd 3f 67 2a bf f4 83 65 bc
       0.03364257 -0.11796943 -0.6656379 -0.014008511
000110 75 ee 48 bf e3 3b 1f 3e 76 b7 86 bf 39 38 be 3d
       -0.78488857 0.15550189 -1.0524738 0.09288067
000120 62 d5 ff 3e 1b a3 ad be d4 50 ba bf 7d dd a1 bf
       0.49967486 -0.33913502 -1.4555917 -1.2645718
000130 aa 48 33 bf d9 c7 b3 3c da 74 88 bd 0a ec b8 3e
       -0.7003275 0.02194588 -0.06662913 0.36117584
000140 18 fe b3 bd 13 5c 37 bf a3 36 17 bf 53 19 a4 be
       -0.08788699 -0.7162487 -0.59067744 -0.3205057
000150 79 bd 7d 3e f4 d9 75 bf 00 b8 9f bf 08 1d 93 bf
       0.2477931 -0.96035695 -1.2478027 -1.1493235
000160 06 57 66 bf 46 2a eb bd 8e 35 6b be 5e 2d 16 bf
       -0.8997654 -0.114826724 -0.22969648 -0.58662975
000170 7d 8a cd be 9f 16 bb 3e 6f fd 0e bf e0 fc 3a 3b
       -0.4014472 0.36540696 -0.5585546 0.0028532073
000180 a9 34 2c 3e 6b 4c 2b 3e c5 01 c0 3e 95 fe 06 bf
       0.16816963 0.1672837 0.3750135 -0.5273221
000190 da a4 2b bf 78 d4 43 bf 8e 2d b3 bd ec e8 45 bf
       -0.6704842 -0.76496077 -0.08748923 -0.77308536
0001a0 12 22 cd 3d a6 9b ac bf 9e ff 06 bf a0 95 9e be
       0.10016264 -1.3485 -0.5273379 -0.3097353
0001b0 fa 4e 64 be 3f 1f 11 3e e0 ab 94 bf 89 c1 06 c0
       -0.22295752 0.14172076 -1.1614952 -2.1055624
0001c0 bc 3a 45 be c5 f1 20 bf 7d e7 79 be 0c 83 26 3e
       -0.19260687 -0.6286891 -0.24404712 0.16260928
0001d0 73 cf 1b 3e 28 a4 b8 3d f5 64 66 be dc 25 4e 3e
       0.15215854 0.09015685 -0.2249945 0.2013163
0001e0 e2 08 80 be b0 79 72 3e 29 81 8a bf 16 f7 13 bf
       -0.25006777 0.23679233 -1.0820667 -0.577989
0001f0 5c 69 a3 3e 8e 2d 86 be eb d8 f7 be 80 b2 86 3e
       0.3191632 -0.2620663 -0.48407683 0.2630806
000200 d4 cc 26 be
       -0.16289073
