data.pth (torch, 7210 bytes, 6 tensors)

l1.weight f4 [8, 90]
00000000: 92a9 b23e 011c 94be ed66 bc3e 6429 b5be
00000010: daea b4bd abd3 61be e887 afbe b1a2 993d
00000020: 69d8 2d3d dd66 c1be 1ca2 0e3f f24b d43c
00000030: 313d 413e 4d5e acbe c7ea 98be 2fc9 ebbd
00000040: d681 7bbe eece 64be 7ea2 6d3e 6e1f 093e
00000050: ecf6 083e c380 afbe e89e ad3e f3fb 363b
00000060: e509 523e 25d8 3cbe daeb 6bbe 535a e13e
00000070: ee98 683d 1765 633e 238a 463f 3881 95bd
00000080: 30e3 583d 2eb1 773e bbf8 13be f55e 233d
00000090: 983e 61be f48e af3d a7b2 ea3c 198f e13d
000000a0: d831 b73e e02c aabd 29d6 243e 95cf 933d
000000b0: c6cf 903e 7cb1 f63e f4e3 933e 9b23 c03e
000000c0: a9ee 0e3f 9a8f 42bd 94ff 20be 8103 5bbe
000000d0: 6c18 ddbe 4261 163f 98f8 babc 3f1b d93c
000000e0: c065 623d fba4 8c3d 057a e53e 5b00 debd
000000f0: 2f1b ddbe 1500 a0bb 8833 a1bd 487e cebe
00000100: 8e7e bdbd d09f 193f 7340 d23e 94be fb3d
00000110: 0c51 22be 54f6 cf3e 885e a73e ecf2 42be
00000120: 1609 833d 3cde 64be 0aad b8be dc72 f93e
00000130: 21c3 32bf 3afa 42be 8bed e6be e4d3 503e
00000140: 912f f53d bbb5 cd3d 7dfe 83bd 1777 2fbe
00000150: 0857 813e 6d77 c03c 1cc5 f5bd d6d2 5c3e
00000160: f4af 49be 2afc fe3d 8944 2b3f 76d5 9fb9
00000170: b27e eb3e d59d 02bf f7e5 cc3e da19 0f3f
00000180: 5b4f e13e 9d64 73bd e8e1 09bd a3ae 1b3e
00000190: 873b f7be 0e9a f9be 67fc 043f 359f 4d3d
000001a0: 9b35 a0be 50a3 c4be 45e0 f03e 8a9a 7abe
000001b0: 5bb5 afbe 609d 08bd b872 bfbe d324 113f
000001c0: d2bf 063e d5e2 33be c973 213f ec9e 6e3f
000001d0: edfb 83be da37 533e 98b5 debe 2cf4 a4bd
000001e0: 253b f7be 111a 44be 1103 76bd 8a5b 2a3e
000001f0: 37da d63e a1a5 5abe 54d8 263f edab bbbd
00000200: f751 31be 2ea3 debe 3988 823e f779 083f
00000210: fbb4 78be c6fa 3dbd c37e 8f3e 6a6c 233f
00000220: 3a20 873e a2db ed3e c976 e5be 9e47 10be
00000230: f41d c13d 5f21 073f a0a1 dbbe 48ae 3a3f
00000240: 4c95 013f 051b ae3e 3d59 abbc 53ca f73e
00000250: 2877 003e ee9e c7be 8604 033f c663 d0be
00000260: d851 e7be b006 8abe 27a6 443f b79a aebe
00000270: c5c1 953e 8adf e0bd 84b8 8cbc ddb1 c63e
00000280: d90c 323f 792d 003f 78ab 69be 7104 b0be
00000290: 27b7 b7be a937 f03e 7d3d c43e ca07 703d
000002a0: 4897 d9be 6fba 0f3e a299 1abe 8fb8 82be
000002b0: c253 2d3f 21c1 033f f7c7 b13e 18bb ebbe
000002c0: a77f 64be a968 2a3e a3dc fdbc d944 a63e
000002d0: 122d 0a3e f3be 1bbd 3df2 47bd 4fb1 183f
000002e0: 6f6a 0abe e45e e03e fa51 48be 2cda a6be
000002f0: 7d54 663e 17e2 bf3e 8591 b9be 1ebc d8be
00000300: a23f 6cbe a029 fd3e 8182 f33e 7e54 1a3f
00000310: 0401 dc3e 6b06 f03e 9b94 f03e 4083 06be
00000320: 84cd 2c3f 0909 06be 48e9 733f 0a82 573f
00000330: fa5f 16be 8472 cebe 1b55 7a3c 97f5 80bb
00000340: f0a7 ca3e aec5 6cbe 1691 b9be 57bb 21bc
00000350: e684 bb3e f4d3 303f 1b93 e0be 5592 b9be
00000360: 5bc7 ddbe 6d90 b9be 6490 b9be 247c acbe
00000370: a31f 59bd 3424 be3e aa49 213f 2edd b5be
00000380: 045b 3d3f a6de 06be 3c15 123f 2c3f 08be
00000390: 9394 a6be b428 513f b8a3 8c3c fb76 cf3e
000003a0: 5005 233f f1fb 8fbe 457b ecbe 6059 8c3e
000003b0: f2ab b23e 0ca3 75be a01a 0e3f a231 4a3f
000003c0: 924e a9be 9b95 073f 4d1f 1b3f e896 b0bd
000003d0: 028c cabe 1915 58be 78c6 263f d910 203f
000003e0: 3cac 643e 512b 07bd 3400 e23d 6732 d7be
000003f0: cebe fd3e 6d10 283e 48b1 423f 365f 173d
0.34894997 -0.28927615 0.36797276 -0.3538314 -0.08833857 -0.22053401 -0.34283376 0.07501734
0.042442713 -0.3777379 0.5571611 0.02591512 0.18870999 -0.33665696 -0.2986662 -0.11512982
-0.24561247 -0.22344562 0.23206517 0.13390896 0.13375443 -0.34277925 0.33910298 0.002792117
0.20511587 -0.18441828 -0.23039189 0.44014224 0.05678647 0.22206531 0.7755453 -0.07300037
0.052951038 0.24188682 -0.14450352 0.03988548 -0.21996534 0.08572188 0.028649641 0.11013622
0.35780215 -0.083093405 0.1609732 0.072173275 0.2828352 0.48182285 0.28884852 0.37527165
0.55832916 -0.04750023 -0.15722495 -0.21388055 -0.43182695 0.58742154 -0.022823617 0.02650225
0.055272818 0.06867405 0.44819656 -0.108399116 -0.43184802 -0.0048828223 -0.07871157 -0.4033072
-0.09252654 0.6000948 0.41064796 0.12292209 -0.1585123 0.4061762 0.3268931 -0.1903798
0.063982174 -0.223504 -0.36069518 0.48720443 -0.69828993 -0.19040766 -0.45103106 0.2039333
0.11971963 0.10044428 -0.06445024 -0.17135273 0.25261712 0.023494447 -0.12000486 0.21564803
-0.19696027 0.1245044 0.6690145 -0.00030485884 0.45995098 -0.5102208 0.400192 0.5589882
0.44005856 -0.059422124 -0.033662707 0.15203337 -0.48287603 -0.48750347 0.51947635 0.05020066
-0.31290898 -0.38405848 0.47046104 -0.24473014 -0.3431805 -0.03335321 -0.3739221 0.56696814
0.13159111 -0.17566998 0.630673 0.93211246 -0.25778142 0.20626774 -0.4349792 -0.080543846
-0.4828731 -0.19150569 -0.060061518 0.16636482 0.4196336 -0.21352245 0.6517384 -0.091636516
-0.17316423 -0.4348387 0.25494555 0.53311104 -0.24287789 -0.046381734 0.280264 0.638373
0.26391774 0.4645663 -0.44817188 -0.1408982 0.09429541 0.52785295 -0.42896748 0.7292218
0.50618434 0.3400499 -0.020916576 0.4839655 0.12545455 -0.3898844 0.5117878 -0.4070112
-0.4517963 -0.26958227 0.7681603 -0.34102413 0.29249397 -0.10980137 -0.017177828 0.38807574
0.69550854 0.50069386 -0.22819316 -0.3437839 -0.35881922 0.46917465 0.38328162 0.05860118
-0.4249823 0.14035963 -0.15097669 -0.25531432 0.6770593 0.51466566 0.34722874 -0.4604118
-0.2231432 0.16641487 -0.030988997 0.32474402 0.13493755 -0.0380239 -0.048815 0.5964555
-0.13517164 0.43822396 -0.19562522 -0.32588327 0.22493167 0.3747718 -0.36243835 -0.42331022
-0.23071149 0.4944582 0.47560504 0.60285175 0.42969525 0.46879897 0.46988377 -0.13136005
0.6750109 -0.13089384 0.95277834 0.841828 -0.1468505 -0.40321743 0.01527908 -0.0039355266
0.3958125 -0.23122284 -0.36243504 -0.009871325 0.3662483 0.69073415 -0.43862233 -0.36244455
-0.4331616 -0.36243 -0.36242974 -0.33688462 -0.053008687 0.37136996 0.6300303 -0.3552031
0.73967004 -0.13170871 0.5706365 -0.13305348 -0.32535228 0.81702733 0.017167911 0.40520462
0.6367998 -0.28121904 -0.46187797 0.27411938 0.3489681 -0.23987979 0.55509377 0.78981984
-0.33067757 0.52962655 0.60594636 -0.08622533 -0.39559942 -0.21101798 0.6514659 0.6252571
0.22331327 -0.033000294 0.11035195 -0.4203064 0.49559635 0.16412516 0.7605176 0.036956035

l1.bias f4 [8]
00000000: ddcb 323f b83a f73e 8892 b93e 998c 213f
00000010: ca44 6a3f 556a 8e3f b1f7 483f e8a5 6c3f
0.6984232 0.48286986 0.36244607 0.6310516 0.91511214 1.11262 0.7850295 0.9244065

l2.weight f4 [8, 8]
00000000: 4a3b dcbe dde6 22bf 79fc 42bf e737 7e3f
00000010: 3700 25bf 3117 823f 6865 b93f 01e9 2f3f
00000020: e850 953f 9f4f eb3e b7a1 29bf 62ce debe
00000030: 05d7 19bf 9921 f53d dad5 4e3f 739a 883f
00000040: 3b78 c93f b180 213d 9ba2 693f a896 3c3d
00000050: 8729 eebe 2e46 f13e f9c2 903f cd5f 59be
00000060: 2372 0ebf 705c b73f c924 33bf 40a6 73bd
00000070: 40e5 c43f 5cc8 cb3f 8ecd c7be b022 93be
00000080: 6b44 10bf 846e ebbe 51c2 cb3f 06a2 cb3f
00000090: c6c1 c93d ea15 5a3e 03be c7be 37eb 943f
000000a0: 3cec f43e 9d46 023f b343 e43c 8f81 efbe
000000b0: ca3c c03d 682a 50bf 3be0 063f 991a 13bf
000000c0: 8f3f bf3f 93d7 86bf 5fcc 57be 68d3 1cbf
000000d0: 76f4 143f 61ef ee3e beae 673f 5527 6d3e
000000e0: 90d1 c8be cacd 46bf 4d4a 55bf 1545 803f
000000f0: f41e ba3f bc10 ca3e d6fa 0ebf 1e04 c03f
-0.43013984 -0.6363352 -0.7616649 0.9930405 -0.6445345 1.0163327 1.4484072 0.6871491
1.1665316 0.45959184 -0.6626238 -0.43516833 -0.6009372 0.11969299 0.8079506 1.0672134
1.5739816 0.03942937 0.9126374 0.046042114 -0.46516058 0.47123855 1.1309501 -0.21227951
-0.5564291 1.4325085 -0.69978005 -0.05948472 1.5382462 1.592052 -0.39024013 -0.28737402
-0.563544 -0.45982754 1.5918676 1.5908821 0.098514125 0.21297422 -0.39012155 1.1634282
0.47836483 0.50889 0.027864313 -0.46778533 0.093865946 -0.81314707 0.526859 -0.5746246
1.4941272 -1.0534538 -0.21074055 -0.6126008 0.5818552 0.46667007 0.9050101 0.23159535
-0.39222383 -0.7765776 -0.833165 1.0021082 1.4540696 0.39465892 -0.55851495 1.5001256

l2.bias f4 [8]
00000000: 881b 9a3e d007 9e3e 071f 963e a4d5 173f
00000010: f354 3b3e f4c7 4ebe 6e7a 82bd 3865 0f3f
0.3009913 0.30865335 0.29320547 0.59310365 0.18294124 -0.20193464 -0.06371008 0.5601382

l3.weight f4 [12, 8]
00000000: 3ac4 16bf d8b1 cabf 564a 78bd d727 523e
00000010: c0a1 103f e113 24bf 5f9a eebf c18b 7fbf
00000020: 928c de3e 34d3 b4bf 6ab1 ec3e c7be 8bbf
00000030: 3810 773d 92f2 11bf 5246 103e 1446 75bf
00000040: 9486 e3bf b5b1 02c0 e564 4bbf 2bdd dc3d
00000050: 7d44 583e 93a8 27be 5832 023f ee74 cd3e
00000060: 1cbb c1bf 437b f63e b2ff 933e fd98 12bf
00000070: 6bb3 59bf cc85 663f da6a ec3e 9000 96bf
00000080: f1b9 453e 9039 303f 4964 843e 8a65 05c0
00000090: 239f 8ebf 3e2a 73bf f5cc 463f c2bd 8cbe
000000a0: 8087 5e3e b02b a5be 9d4a cebe ea9e 7cbe
000000b0: 477b bdbe 5e44 15bf 5e20 e83e cfc7 653e
000000c0: 9a21 a4bf e12f 713e d2dd 113f a046 ccbf
000000d0: acda 2f3f 24b7 44bf 0778 8abf 0a9d 96bf
000000e0: 759b 88bf 857b b9bf 3a0b 84bf dda1 3d3f
000000f0: 40c3 bfbf 2be4 69be 3b20 4ebf f90f c93e
00000100: afa6 33be e8af d5bf 4edb 03bf 35aa cdbf
00000110: d3dd 653f 9b78 80be 3835 a1bf cb19 ea3e
00000120: fa8e 06bf 0e85 103f 1e25 1fbd 0003 f33e
00000130: fab8 b8bf b336 5cbf adc3 adbf 2da7 4abf
00000140: 60d2 173f 4198 2e3e b845 c0be 731f e2bf
00000150: 8ada 0c3e bb48 a7be 627d 28bf 41bd 293d
00000160: a95e 073d 805c 90be 9de2 f3bf 4495 173c
00000170: b8ae 963e 530a 42bf 8714 01c0 d2a0 1e3f
-0.5889317 -1.5835524 -0.060617767 0.2052301 0.5649681 -0.6409283 -1.864086 -0.9982262
0.43466622 -1.4126954 0.46229106 -1.0917596 0.0603182 -0.5701076 0.14089325 -0.95810056
-1.7775445 -2.0420964 -0.7945083 0.10784372 0.21119876 -0.163729 0.5085807 0.40128273
-1.5135226 0.48140916 0.28906018 -0.5726469 -0.85039395 0.9004791 0.4617527 -1.1718922
0.19309212 0.68837833 0.25857762 -2.0843225 -1.1142315 -0.9498633 0.7765649 -0.27488524
0.21731377 -0.32259893 -0.402913 -0.24669996 -0.37008116 -0.58307445 0.45337194 0.22439502
-1.2822754 0.2355342 0.56979096 -1.5959053 0.6869304 -0.7684195 -1.081788 -1.1766675
-1.0672442 -1.449082 -1.0315926 0.7407511 -1.498146 -0.22840945 -0.8051793 0.3927
-0.17544053 -1.6694307 -0.5150651 -1.6067568 0.897916 -0.25092015 -1.2594366 0.45722803
-0.52561915 0.56453025 -0.038853757 0.47463226 -1.443145 -0.86020964 -1.357534 -0.7916134
0.5930538 0.17050268 -0.3755319 -1.7665848 0.13755241 -0.32672676 -0.6581632 0.041440252
0.03304926 -0.28195572 -1.9053532 0.009251896 0.29430175 -0.75797004 -2.016878 0.6196414

l3.bias f4 [12]
00000000: 2fea b63e 7bf2 8bbe 84d5 79bd 0606 443d
00000010: 2406 7a3d 4654 a5be 1af8 ab3e 8f0c 743e
00000020: fe94 c43d fe7a 813e d5ba 8bbe 979e 87be
0.35725543 -0.27333435 -0.06099464 0.047857307 0.061041012 -0.32290858 0.33587724 0.23832916
0.095987305 0.25289148 -0.2729098 -0.26488182
